data/backbone_repetition.pt (torch, 547313 bytes, 71 tensors)

network.pos_embedding f4 [1, 16, 32]
000000 79 3b af bd e5 fb 94 3b 5e 28 71 3c 26 7c 17 bd
       -0.085562654 0.0045466297 0.014719097 -0.03698363
000010 7f c9 33 bc a5 0b f9 3b b1 dd e2 bb 24 4d 30 3a
       -0.010973333 0.007600265 -0.0069234003 0.0006725362
000020 a6 db 6e 3c 04 5a 80 bd 8a 95 8d 3b 6f 44 88 3c
       0.014578735 -0.06267169 0.004320805 0.016634194
000030 e0 7b 99 bc a0 2b f1 3a 9b c9 f6 bb 8e 54 98 bc
       -0.018735826 0.0018399842 -0.0075313575 -0.018595006
000040 7b 6e 91 3d 16 80 76 3d fc 22 01 bb 62 85 32 3d
       0.071011506 0.060180746 -0.001970469 0.043584235
000050 0c 9b 50 bc b2 4e c2 3c ed 32 41 bd 8e 40 b5 bc
       -0.012732279 0.023719165 -0.047167707 -0.022125509
000060 d6 c0 02 bd b2 a9 3e 3c b7 8c 1c bd 08 dc f7 3c
       -0.031922184 0.011637138 -0.038220134 0.030256286
000070 bc 3f 06 3e db 3b 82 bd 59 74 08 3c a3 d2 0c 3c
       0.1311025 -0.06359073 0.008328521 0.008595142
000080 08 6f 8d bd b2 60 3f bc 86 d5 e6 3c cf df 33 bd
       -0.06905943 -0.011680769 0.028177988 -0.043914612
000090 e3 d7 95 bc 2b d4 30 bb a6 1c a7 bb cb 95 8f 3c
       -0.01829142 -0.002698193 -0.0050998507 0.017527482
0000a0 9e 3c 4a 3c f5 f1 cb bc a0 29 ad bc 45 e7 8e bb
       0.012343554 -0.024895648 -0.021138012 -0.0043610656
0000b0 6e a2 a5 bc c1 73 8d bc 79 1e bf bc f3 7b d6 bc
       -0.020219054 -0.01726711 -0.02332996 -0.02618215
0000c0 f4 90 92 3d 69 08 bc 3d a9 86 7a 3c 8c 36 15 3d
       0.07156554 0.091812916 0.015290895 0.036428973
0000d0 06 5c 5a 3c 7b 32 86 3b bc fb 91 bc e6 0c 5b bb
       0.013327604 0.004095373 -0.017820232 -0.0033424436
0000e0 e8 88 2f bd 1a 96 2d bc ed 57 bc bc bf 5d 27 3d
       -0.042855173 -0.010594869 -0.022991145 0.040860888
0000f0 49 99 06 3e 5a 6e b9 bd b6 d7 23 bc 3d 89 85 3c
       0.13144411 -0.09054251 -0.01000016 0.016300792
000100 42 3a 04 bd 58 72 ce ba 71 36 30 bc a7 f9 81 bc
       -0.03228212 -0.001575063 -0.010755167 -0.015866114
000110 48 6c 05 bd 20 da 83 bb 42 7c 8a 3c 40 b7 fd bc
       -0.03257397 -0.0040238053 0.016904954 -0.03097117
000120 49 20 63 b9 c2 ec d9 3b ab 08 b5 bc 7d 71 a1 bb
       -0.00021660434 0.006650538 -0.02209886 -0.004926859
000130 be 0a f3 bc 34 58 a0 bc c0 4e 4b bc 3e 8c 75 bb
       -0.029668208 -0.019573309 -0.012408912 -0.0037467624
000140 61 b3 79 3d dd 70 61 3d 0e 59 e4 3c 19 49 a3 3c
       0.060962085 0.055039275 0.027874496 0.019932317
000150 e2 08 93 3c 42 b8 7b 3c 16 b2 8d bc 2a 07 12 bb
       0.017948572 0.015363755 -0.017296832 -0.0022282102
000160 9f 38 c1 bb e9 d8 5d bc a0 99 66 bc 32 a7 c1 3c
       -0.0058966423 -0.013540485 -0.014074713 0.023639295
000170 f8 04 de 3d 90 c0 b7 bd 86 02 d4 bc c0 bf 46 bc
       0.108407915 -0.08972275 -0.02588011 -0.012130678
000180 ee 1a 0c bd 3e e0 30 bc 39 f8 06 bc ad 47 54 bc
       -0.03420537 -0.010795651 -0.008237892 -0.012956542
000190 3c 60 52 3b 0f 94 bc bb f0 71 91 bc 77 0f 59 3a
       0.0032100817 -0.0057549546 -0.017754525 0.00082801975
0001a0 bd 5e 2b bc 54 77 82 bb ca 5c 5c bc 98 a3 3f bb
       -0.010459599 -0.00398151 -0.013449857 -0.0029241797
0001b0 6a ea 2a bc f4 b9 a6 bb 7e a3 90 bc c3 b3 f0 3b
       -0.010431865 -0.0050880853 -0.017656084 0.007345648
0001c0 00 f1 25 3d 49 5a 6a 3d bb e9 d7 ba 36 27 48 3c
       0.04051304 0.05721501 -0.0016472855 0.01221638
0001d0 75 a4 56 bb e1 b6 6b bc a3 ce ab 3b 75 ff f5 ba
       -0.0032751833 -0.014386863 0.005243139 -0.0018768149
0001e0 4b bf 29 bc b8 e0 26 3b 5e 33 7b ba 0d 2b 1b 3c
       -0.010360549 0.0025463533 -0.00095825444 0.009470713
0001f0 b3 1e a0 3d 4f fc 52 bd cf b0 60 bc d1 d6 42 bc
       0.078183554 -0.05151015 -0.013714029 -0.011892037
000200 b4 82 3a 3b c9 49 7f 3b cf 09 62 bc 43 dd e4 bb
       0.0028459253 0.0038953891 -0.013796284 -0.0069843843
000210 91 95 22 3c bb 3c 17 bc 55 2d 21 bb 9f 50 04 bc
       0.009923355 -0.009230788 -0.002459367 -0.008075862
000220 32 0f 93 ba cb a2 7a 3c 44 1f e3 bc 88 15 2a 3d
       -0.0011219739 0.015297602 -0.02772487 0.04152444
000230 23 6c 5f bb 65 e4 94 bc 61 a1 a5 3c 3e ab a5 3c
       -0.0034091554 -0.018175313 0.020218553 0.020223256
000240 4f 72 30 ba 5c 43 76 3a f9 66 52 3b 54 de 84 bb
       -0.00067309005 0.00093941926 0.0032104834 -0.004054824
000250 94 a5 ad bc 3e 64 b7 3a ff 9b b6 bb e7 36 6f 3c
       -0.021197118 0.0013991666 -0.0055727954 0.014600492
000260 14 7a 32 bc 4d 07 0f 3d 0f 51 ca bb d2 c1 94 3b
       -0.0108933635 0.034919072 -0.0061742137 0.0045397067
000270 d0 ae 00 bd e1 c0 ff 3b 8c 72 8f 3c c1 73 e1 bc
       -0.031416714 0.0078049754 0.017510675 -0.027521016
000280 11 66 5b 3d 06 5a 5d bb 83 8b 53 bc 36 e7 96 3c
       0.053564135 -0.0033775582 -0.01291168 0.018420797
000290 9e 1c b3 3c e3 b1 9c 3b 00 1d 1f 3b 5b 44 be bc
       0.021864232 0.004781948 0.002427876 -0.023225954
0002a0 a9 6a 67 bb b5 82 58 3a b5 48 05 bc 3e 2c d2 3c
       -0.0035311377 0.0008259223 -0.0081350105 0.025655862
0002b0 91 a4 d9 bb 95 1b fe bc 69 b0 06 3d 00 19 07 3d
       -0.0066419323 -0.031019012 0.03288308 0.032982826
0002c0 a8 50 27 bd 8e 04 49 bd 1d b8 78 3a 9b 2f d4 bc
       -0.040848404 -0.04907661 0.0009487884 -0.025901606
0002d0 13 33 9d bc 0f dc 58 39 ff 58 46 3c 2b c0 59 3c
       -0.019189393 0.00020681343 0.012106179 0.013290445
0002e0 05 99 2b 3c 3a a8 bb 3c e4 15 65 bc 26 9e bb bc
       0.010473494 0.022907365 -0.01398227 -0.02290256
0002f0 9f 08 cd bd b5 0a d8 3c 0c 54 90 bb fe ed ae bc
       -0.1001141 0.026372293 -0.0044045504 -0.021353718
000300 05 d2 a9 3d 74 ef f6 bb ac b4 02 3b e6 ad 07 3d
       0.08292011 -0.0075358693 0.0019944115 0.033124827
000310 16 e4 dc 3c 8d 6b fb 3b 08 30 89 bb ae 84 0f bc
       0.026964229 0.007672733 -0.004186634 -0.008759661
000320 b3 23 b6 3b af 6c a5 3c 18 13 00 3d 2a 0a 46 3c
       0.005558455 0.020193426 0.03126821 0.012087384
000330 4c 63 80 3b 23 ac 40 bc 95 ce d5 3c da 33 c6 3c
       0.003918087 -0.011759791 0.026099483 0.024194647
000340 44 bc ce bd fe 1e a6 bd 37 12 17 bc a9 73 2f bd
       -0.100945026 -0.0811138 -0.009220651 -0.04283491
000350 e8 0c 27 bc fc 02 4f bb b7 2f b4 3c df e9 71 bb
       -0.010195948 -0.0031587472 0.021995408 -0.003691308
000360 79 c1 b8 3c 89 22 c2 bb 25 9a 56 3c 7d ba 19 bd
       0.022553192 -0.005924527 0.013098274 -0.037531365
000370 0d 2e 08 be 8d 5c a2 3d 96 ed 42 bc 4e 8e 98 bc
       -0.13298817 0.07927809 -0.011897465 -0.018622544
000380 2a 2e df 3d 63 da 52 3c 12 f6 5c 3c 77 b2 fa 3c
       0.10897477 0.01286945 0.013486402 0.030602677
000390 c5 74 d9 3c ed 8e 31 3b 08 f8 21 bc a2 f0 77 bc
       0.026544938 0.0027093247 -0.009885795 -0.015133055
0003a0 e9 a3 ab 3b 59 06 25 3d ba 43 44 3d c0 3e ad bc
       0.0052380455 0.040289257 0.04791615 -0.021148086
0003b0 16 a1 08 3c 1b cc ba 3a 00 8f ee 3c e5 85 a6 3c
       0.008339187 0.0014251502 0.029120922 0.020327518
0003c0 bd bf fc bd e6 41 ae bd 26 f6 06 bc 35 84 6b bd
       -0.12341259 -0.08508663 -0.008237397 -0.05749913
0003d0 2c d0 f2 3b 3d 89 24 bb 04 cc d5 3c 60 ae ed 39
       0.00741007 -0.0025106214 0.026098259 0.00045334082
0003e0 13 26 86 3c d2 aa a8 bc e8 25 21 3d 12 b6 84 bd
       0.016375577 -0.020589266 0.03934279 -0.0648004
0003f0 aa b8 37 be 08 15 d0 3d b9 0d 08 bc a2 5a 4d bc
       -0.17941537 0.101602614 -0.008304053 -0.012533816

network.spec.spectrogram.window f4 [1024]
000000 00 00 00 00 00 00 1e 37 00 e0 1d 38 00 a0 b1 38
       0.0 9.417534e-06 3.7640333e-05 8.46982e-05
000010 00 e8 1d 39 00 b8 76 39 00 a4 b1 39 00 c4 f1 39
       0.00015059114 0.00023528934 0.0003388226 0.00046113133
000020 00 e2 1d 3a 00 d0 47 3a 00 aa 76 3a 00 39 95 3a
       0.00060227513 0.0007622242 0.0009409487 0.0011384785
000030 00 93 b1 3a 00 63 d0 3a 00 a8 f1 3a 80 b1 0a 3b
       0.0013547838 0.0015898645 0.0018436909 0.0021162927
000040 80 c9 1d 3b 80 1b 32 3b 00 a8 47 3b 80 6e 5e 3b
       0.0024076402 0.0027177036 0.0030465126 0.0033940375
000050 80 6e 76 3b c0 d3 87 3b 40 0d 95 3b 00 e3 a2 3b
       0.0037602484 0.0041451156 0.0045486987 0.004970908
000060 00 55 b1 3b 40 63 c0 3b c0 0d d0 3b 00 54 e0 3b
       0.005411744 0.0058712065 0.0063492954 0.006845951
000070 00 36 f1 3b e0 59 01 3c 60 66 0a 3c 80 c0 13 3c
       0.0073611736 0.007894963 0.00844726 0.009018064
000080 20 68 1d 3c 40 5d 27 3c c0 9f 31 3c 80 2f 3c 3c
       0.009607345 0.010215104 0.01084131 0.011485934
000090 60 0c 47 3c 40 36 52 3c 00 ad 5d 3c a0 70 69 3c
       0.0121489465 0.012830317 0.013530016 0.014248043
0000a0 00 81 75 3c 00 ef 80 3c b0 43 87 3c 90 be 8d 3c
       0.014984369 0.015738964 0.016511768 0.017302781
0000b0 90 5f 94 3c 90 26 9b 3c a0 13 a2 3c 90 26 a9 3c
       0.018111974 0.018939286 0.019784749 0.02064827
0000c0 50 5f b0 3c e0 bd b7 3c 30 42 bf 3c 10 ec c6 3c
       0.021529824 0.022429407 0.02334699 0.024282485
0000d0 90 bb ce 3c 80 b0 d6 3c e0 ca de 3c 90 0a e7 3c
       0.025235921 0.026207209 0.027196348 0.028203279
0000e0 80 6f ef 3c a0 f9 f7 3c 68 54 00 3d 80 be 04 3d
       0.029227972 0.030270398 0.031330496 0.032408237
0000f0 10 3b 09 3d 10 ca 0d 3d 68 6b 12 3d 18 1f 17 3d
       0.033503592 0.03461653 0.03574696 0.036894888
000100 10 e5 1b 3d 40 bd 20 3d a0 a7 25 3d 28 a4 2a 3d
       0.038060248 0.039242983 0.040443063 0.041660458
000110 d0 b2 2f 3d 78 d3 34 3d 28 06 3a 3d c0 4a 3f 3d
       0.04289514 0.044146985 0.045416027 0.046702147
000120 40 a1 44 3d a0 09 4a 3d c0 83 4f 3d a8 0f 55 3d
       0.048005342 0.049325585 0.050662756 0.052016884
000130 38 ad 5a 3d 68 5c 60 3d 38 1d 66 3d 80 ef 6b 3d
       0.05338785 0.054775625 0.05618021 0.057601452
000140 48 d3 71 3d 70 c8 77 3d f8 ce 7d 3d 64 f3 81 3d
       0.059039384 0.060493886 0.06196496 0.06345251
000150 ec 07 85 3d 08 25 88 3d b4 4a 8b 3d e8 78 8e 3d
       0.064956516 0.06647688 0.06801358 0.06956655
000160 98 af 91 3d c0 ee 94 3d 58 36 98 3d 58 86 9b 3d
       0.0711357 0.072721004 0.0743224 0.075939834
000170 b4 de 9e 3d 6c 3f a2 3d 6c a8 a5 3d b8 19 a9 3d
       0.07757321 0.07922253 0.080887645 0.082568586
000180 3c 93 ac 3d f8 14 b0 3d e0 9e b3 3d e8 30 b7 3d
       0.0842652 0.085977495 0.087705374 0.08944875
000190 0c cb ba 3d 44 6d be 3d 84 17 c2 3d c0 c9 c5 3d
       0.09120759 0.092981845 0.094771415 0.096576214
0001a0 f8 83 c9 3d 1c 46 cd 3d 20 10 d1 3d 04 e2 d4 3d
       0.09839624 0.10023138 0.10208154 0.103946716
0001b0 b8 bb d8 3d 30 9d dc 3d 6c 86 e0 3d 5c 77 e4 3d
       0.105826795 0.10772169 0.10963139 0.111555785
0001c0 f4 6f e8 3d 2c 70 ec 3d 00 78 f0 3d 60 87 f4 3d
       0.11349478 0.115448326 0.11741638 0.11939883
0001d0 40 9e f8 3d 9c bc fc 3d 32 71 00 3e ca 87 02 3e
       0.12139559 0.12340662 0.1254318 0.12747112
0001e0 0e a2 04 3e fc bf 06 3e 8c e1 08 3e b8 06 0b 3e
       0.12952444 0.13159174 0.1336729 0.13576782
0001f0 7c 2f 0d 3e d6 5b 0f 3e bc 8b 11 3e 28 bf 13 3e
       0.13787645 0.13999876 0.1421346 0.14428389
000200 1a f6 15 3e 88 30 18 3e 6e 6e 1a 3e c6 af 1c 3e
       0.14644662 0.14862263 0.15081188 0.15301427
000210 8c f4 1e 3e b8 3c 21 3e 44 88 23 3e 2e d7 25 3e
       0.15522975 0.15745819 0.1596995 0.16195366
000220 6e 29 28 3e fc 7e 2a 3e d8 d7 2c 3e f6 33 2f 3e
       0.16422054 0.16650003 0.16879213 0.17109665
000230 56 93 31 3e ec f5 33 3e b6 5b 36 3e b0 c4 38 3e
       0.1734136 0.1757428 0.17808422 0.1804378
000240 ce 30 3b 3e 10 a0 3d 3e 6c 12 40 3e de 87 42 3e
       0.18280336 0.1851809 0.18757027 0.18997142
000250 5e 00 45 3e e8 7b 47 3e 76 fa 49 3e 00 7c 4c 3e
       0.19238421 0.1948086 0.1972445 0.19969177
000260 80 00 4f 3e f2 87 51 3e 4e 12 54 3e 8e 9f 56 3e
       0.20215034 0.20462015 0.20710108 0.20959303
000270 ac 2f 59 3e a2 c2 5b 3e 66 58 5e 3e f8 f0 60 3e
       0.21209592 0.21460965 0.21713409 0.21966922
000280 4e 8c 63 3e 60 2a 66 3e 2a cb 68 3e a4 6e 6b 3e
       0.2222149 0.22477102 0.22733751 0.22991425
000290 ca 14 6e 3e 94 bd 70 3e fc 68 73 3e fa 16 76 3e
       0.23250118 0.23509818 0.23770517 0.24032202
0002a0 88 c7 78 3e a0 7a 7b 3e 36 30 7e 3e 26 74 80 3e
       0.24294865 0.24558496 0.24823079 0.25088614
0002b0 6c d1 81 3e ea 2f 83 3e 9c 8f 84 3e 7d f0 85 3e
       0.2535509 0.25622493 0.25890815 0.2616004
0002c0 8c 52 87 3e c4 b5 88 3e 22 1a 8a 3e a4 7f 8b 3e
       0.26430166 0.26701176 0.26973063 0.2724582
0002d0 46 e6 8c 3e 04 4e 8e 3e da b6 8f 3e c4 20 91 3e
       0.27519435 0.27793896 0.28069192 0.2834531
0002e0 c0 8b 92 3e ca f7 93 3e e0 64 95 3e fc d2 96 3e
       0.28622246 0.28899986 0.29178524 0.29457843
0002f0 1c 42 98 3e 3c b2 99 3e 58 23 9b 3e 6b 95 9c 3e
       0.29737937 0.30018795 0.30300403 0.30582747
000300 76 08 9e 3e 72 7c 9f 3e 5c f1 a0 3e 30 67 a2 3e
       0.3086583 0.31149632 0.31434143 0.3171935
000310 ec dd a3 3e 8c 55 a5 3e 08 ce a6 3e 63 47 a8 3e
       0.3200525 0.3229183 0.32579064 0.32866964
000320 96 c1 a9 3e 9e 3c ab 3e 78 b8 ac 3e 1e 35 ae 3e
       0.33155507 0.33444685 0.33734488 0.340249
000330 8f b2 af 3e c4 30 b1 3e bd af b2 3e 75 2f b4 3e
       0.34315917 0.34607518 0.34899703 0.35192457
000340 e8 af b5 3e 12 31 b7 3e f0 b2 b8 3e 7e 35 ba 3e
       0.35485768 0.35779625 0.36074018 0.36368936
000350 b6 b8 bb 3e 99 3c bd 3e 20 c1 be 3e 48 46 c0 3e
       0.3666436 0.36960295 0.37256718 0.3755362
000360 0e cc c1 3e 6d 52 c3 3e 60 d9 c4 3e e6 60 c6 3e
       0.37850994 0.38148823 0.38447094 0.38745803
000370 fc e8 c7 3e 9b 71 c9 3e c0 fa ca 3e 69 84 cc 3e
       0.3904494 0.39344487 0.39644432 0.3994477
000380 91 0e ce 3e 32 99 cf 3e 4c 24 d1 3e da af d2 3e
       0.40245488 0.40546566 0.40848005 0.4114979
000390 d8 3b d4 3e 42 c8 d5 3e 14 55 d7 3e 4a e2 d8 3e
       0.41451907 0.41754347 0.42057097 0.42360145
0003a0 df 6f da 3e d2 fd db 3e 1f 8c dd 3e c0 1a df 3e
       0.42663476 0.42967087 0.43270966 0.43575096
0003b0 b2 a9 e0 3e f2 38 e2 3e 7c c8 e3 3e 49 58 e5 3e
       0.43879467 0.4418407 0.44488895 0.4479392
0003c0 59 e8 e6 3e a8 78 e8 3e 31 09 ea 3e f0 99 eb 3e
       0.45099142 0.45404553 0.45710137 0.46015882
0003d0 e1 2a ed 3e 00 bc ee 3e 49 4d f0 3e ba de f1 3e
       0.46321777 0.46627808 0.46933964 0.4724024
0003e0 4d 70 f3 3e 00 02 f5 3e ce 93 f6 3e b3 25 f8 3e
       0.47546616 0.47853088 0.4815964 0.48466262
0003f0 ac b7 f9 3e b2 49 fb 3e c6 db fc 3e e1 6d fe 3e
       0.48772943 0.49079663 0.49386424 0.49693206

network.spec.mel_scale.fb f4 [513, 64]
000000 00 00 00 80 00 00 00 00 00 00 00 00 00 00 00 00
       -0.0 0.0 0.0 0.0
000010 00 00 00 00 00 00 00 00 00 00 00 00 00 00 00 00
       0.0 0.0 0.0 0.0
000020 00 00 00 00 00 00 00 00 00 00 00 00 00 00 00 00
       0.0 0.0 0.0 0.0
000030 00 00 00 00 00 00 00 00 00 00 00 00 00 00 00 00
       0.0 0.0 0.0 0.0
000040 00 00 00 00 00 00 00 00 00 00 00 00 00 00 00 00
       0.0 0.0 0.0 0.0
000050 00 00 00 00 00 00 00 00 00 00 00 00 00 00 00 00
       0.0 0.0 0.0 0.0
000060 00 00 00 00 00 00 00 00 00 00 00 00 00 00 00 00
       0.0 0.0 0.0 0.0
000070 00 00 00 00 00 00 00 00 00 00 00 00 00 00 00 00
       0.0 0.0 0.0 0.0
000080 00 00 00 00 00 00 00 00 00 00 00 00 00 00 00 00
       0.0 0.0 0.0 0.0
000090 00 00 00 00 00 00 00 00 00 00 00 00 00 00 00 00
       0.0 0.0 0.0 0.0
0000a0 00 00 00 00 00 00 00 00 00 00 00 00 00 00 00 00
       0.0 0.0 0.0 0.0
0000b0 00 00 00 00 00 00 00 00 00 00 00 00 00 00 00 00
       0.0 0.0 0.0 0.0
0000c0 00 00 00 00 00 00 00 00 00 00 00 00 00 00 00 00
       0.0 0.0 0.0 0.0
0000d0 00 00 00 00 00 00 00 00 00 00 00 00 00 00 00 00
       0.0 0.0 0.0 0.0
0000e0 00 00 00 00 00 00 00 00 00 00 00 00 00 00 00 00
       0.0 0.0 0.0 0.0
0000f0 00 00 00 00 00 00 00 00 00 00 00 00 00 00 00 00
       0.0 0.0 0.0 0.0
000100 be b5 31 3f 00 00 00 00 00 00 00 00 00 00 00 00
       0.6941794 0.0 0.0 0.0
000110 00 00 00 00 00 00 00 00 00 00 00 00 00 00 00 00
       0.0 0.0 0.0 0.0
000120 00 00 00 00 00 00 00 00 00 00 00 00 00 00 00 00
       0.0 0.0 0.0 0.0
000130 00 00 00 00 00 00 00 00 00 00 00 00 00 00 00 00
       0.0 0.0 0.0 0.0
000140 00 00 00 00 00 00 00 00 00 00 00 00 00 00 00 00
       0.0 0.0 0.0 0.0
000150 00 00 00 00 00 00 00 00 00 00 00 00 00 00 00 00
       0.0 0.0 0.0 0.0
000160 00 00 00 00 00 00 00 00 00 00 00 00 00 00 00 00
       0.0 0.0 0.0 0.0
000170 00 00 00 00 00 00 00 00 00 00 00 00 00 00 00 00
       0.0 0.0 0.0 0.0
000180 00 00 00 00 00 00 00 00 00 00 00 00 00 00 00 00
       0.0 0.0 0.0 0.0
000190 00 00 00 00 00 00 00 00 00 00 00 00 00 00 00 00
       0.0 0.0 0.0 0.0
0001a0 00 00 00 00 00 00 00 00 00 00 00 00 00 00 00 00
       0.0 0.0 0.0 0.0
0001b0 00 00 00 00 00 00 00 00 00 00 00 00 00 00 00 00
       0.0 0.0 0.0 0.0
0001c0 00 00 00 00 00 00 00 00 00 00 00 00 00 00 00 00
       0.0 0.0 0.0 0.0
0001d0 00 00 00 00 00 00 00 00 00 00 00 00 00 00 00 00
       0.0 0.0 0.0 0.0
0001e0 00 00 00 00 00 00 00 00 00 00 00 00 00 00 00 00
       0.0 0.0 0.0 0.0
0001f0 00 00 00 00 00 00 00 00 00 00 00 00 00 00 00 00
       0.0 0.0 0.0 0.0
000200 76 cc 20 3f 15 67 be 3e 00 00 00 00 00 00 00 00
       0.6281198 0.3718802 0.0 0.0
000210 00 00 00 00 00 00 00 00 00 00 00 00 00 00 00 00
       0.0 0.0 0.0 0.0
000220 00 00 00 00 00 00 00 00 00 00 00 00 00 00 00 00
       0.0 0.0 0.0 0.0
000230 00 00 00 00 00 00 00 00 00 00 00 00 00 00 00 00
       0.0 0.0 0.0 0.0
000240 00 00 00 00 00 00 00 00 00 00 00 00 00 00 00 00
       0.0 0.0 0.0 0.0
000250 00 00 00 00 00 00 00 00 00 00 00 00 00 00 00 00
       0.0 0.0 0.0 0.0
000260 00 00 00 00 00 00 00 00 00 00 00 00 00 00 00 00
       0.0 0.0 0.0 0.0
000270 00 00 00 00 00 00 00 00 00 00 00 00 00 00 00 00
       0.0 0.0 0.0 0.0
000280 00 00 00 00 00 00 00 00 00 00 00 00 00 00 00 00
       0.0 0.0 0.0 0.0
000290 00 00 00 00 00 00 00 00 00 00 00 00 00 00 00 00
       0.0 0.0 0.0 0.0
0002a0 00 00 00 00 00 00 00 00 00 00 00 00 00 00 00 00
       0.0 0.0 0.0 0.0
0002b0 00 00 00 00 00 00 00 00 00 00 00 00 00 00 00 00
       0.0 0.0 0.0 0.0
0002c0 00 00 00 00 00 00 00 00 00 00 00 00 00 00 00 00
       0.0 0.0 0.0 0.0
0002d0 00 00 00 00 00 00 00 00 00 00 00 00 00 00 00 00
       0.0 0.0 0.0 0.0
0002e0 00 00 00 00 00 00 00 00 00 00 00 00 00 00 00 00
       0.0 0.0 0.0 0.0
0002f0 00 00 00 00 00 00 00 00 00 00 00 00 00 00 00 00
       0.0 0.0 0.0 0.0
000300 00 00 00 00 e1 06 77 3f f7 91 0f 3d 00 00 00 00
       0.0 0.9649487 0.035051312 0.0
000310 00 00 00 00 00 00 00 00 00 00 00 00 00 00 00 00
       0.0 0.0 0.0 0.0
000320 00 00 00 00 00 00 00 00 00 00 00 00 00 00 00 00
       0.0 0.0 0.0 0.0
000330 00 00 00 00 00 00 00 00 00 00 00 00 00 00 00 00
       0.0 0.0 0.0 0.0
000340 00 00 00 00 00 00 00 00 00 00 00 00 00 00 00 00
       0.0 0.0 0.0 0.0
000350 00 00 00 00 00 00 00 00 00 00 00 00 00 00 00 00
       0.0 0.0 0.0 0.0
000360 00 00 00 00 00 00 00 00 00 00 00 00 00 00 00 00
       0.0 0.0 0.0 0.0
000370 00 00 00 00 00 00 00 00 00 00 00 00 00 00 00 00
       0.0 0.0 0.0 0.0
000380 00 00 00 00 00 00 00 00 00 00 00 00 00 00 00 00
       0.0 0.0 0.0 0.0
000390 00 00 00 00 00 00 00 00 00 00 00 00 00 00 00 00
       0.0 0.0 0.0 0.0
0003a0 00 00 00 00 00 00 00 00 00 00 00 00 00 00 00 00
       0.0 0.0 0.0 0.0
0003b0 00 00 00 00 00 00 00 00 00 00 00 00 00 00 00 00
       0.0 0.0 0.0 0.0
0003c0 00 00 00 00 00 00 00 00 00 00 00 00 00 00 00 00
       0.0 0.0 0.0 0.0
0003d0 00 00 00 00 00 00 00 00 00 00 00 00 00 00 00 00
       0.0 0.0 0.0 0.0
0003e0 00 00 00 00 00 00 00 00 00 00 00 00 00 00 00 00
       0.0 0.0 0.0 0.0
0003f0 00 00 00 00 00 00 00 00 00 00 00 00 00 00 00 00
       0.0 0.0 0.0 0.0

network.frontend.layer1.conv_1.weight f4 [32, 1, 3, 3]
000000 3d ef 80 3b b5 96 8a 3d b5 a0 9b bd ab 67 99 3d
       0.0039347694 0.06767026 -0.07599012 0.07490476
000010 3b b4 76 bc 6a a2 a8 bd 68 36 f8 3c 2f 34 2d 3d
       -0.015057619 -0.08234103 0.03029938 0.042286094
000020 59 5d 0a be 52 d1 90 3c 87 79 da bb 19 df 92 3b
       -0.13512172 0.017677937 -0.006667319 0.0044821617
000030 8d b7 87 3c ca 11 97 3c 93 ba 0b 3d 5c d9 1c 3d
       0.016567016 0.0184411 0.034113478 0.038293228
000040 40 7a b8 3c 82 34 48 3d 62 c2 b4 39 f3 59 95 39
       0.02251923 0.0488782 0.00034477102 0.00028486512
000050 b2 a5 39 b8 14 76 3b 3a 05 4e 2c 3a 1d 41 a6 39
       -4.4261753e-05 0.0007151079 0.0006572905 0.000317105
000060 11 20 2e ba c1 58 32 ba 82 f0 40 ba ea a6 9a 3d
       -0.00066423515 -0.00068033865 -0.0007360057 0.075513676
000070 13 20 87 bc 25 10 20 be c1 11 f2 3d c0 40 96 3d
       -0.016494786 -0.15631159 0.118197925 0.07336569
000080 70 f5 05 be 71 f9 61 bc 12 c4 24 3d 48 e8 1e bc
       -0.13081908 -0.013792382 0.04022605 -0.009698935
000090 1c 52 1b 3d 4b fd 83 3d c0 82 ff bd f1 b1 db 3d
       0.037920102 0.06444796 -0.124761105 0.10727299
0000a0 3f 46 e4 3c fc a7 3f bd c6 68 35 3e 51 fb 9e 3d
       0.027865527 -0.04679106 0.17715749 0.077627786
0000b0 79 e7 81 be 06 ab 20 3e 87 26 a8 bc c0 95 0d be
       -0.25371912 0.1569024 -0.020526184 -0.13826656
0000c0 37 0d 7b be 3e 56 d5 3d 98 88 27 3e a2 5f bc 3d
       -0.2451676 0.1041684 0.163607 0.09197928
0000d0 79 e1 1f bd 15 d4 76 bd ec 67 3a ba f5 bc a9 b9
       -0.039033387 -0.06026085 -0.00071108225 -0.00032374976
0000e0 e5 dd a7 b9 5c d0 30 39 3b d8 1d 3a 76 5c f4 39
       -0.00032018046 0.00016862288 0.00060212956 0.00046608195
0000f0 56 5a dc b8 0c 18 43 39 d4 7c 12 b9 f7 49 1e 3e
       -0.00010507244 0.00018605607 -0.00013970147 0.15457903
000100 c1 0a 43 3e f9 20 42 3e 5e 1d 13 be dd 7c 52 3d
       0.19047071 0.1895789 -0.14366671 0.05138861
000110 09 17 39 be 68 4f 5d bd 1a d8 4a be 47 2a 79 bd
       -0.18075193 -0.054030806 -0.19808999 -0.060831334
000120 dc 29 90 3d 1d 8e 42 be 74 a3 af 3d 4e 8e be 3d
       0.07039234 -0.18999524 0.08576098 0.09304486
000130 78 66 80 3d 34 e0 fc 3d 3f d8 90 bd db 98 06 be
       0.06269544 0.12347451 -0.07072496 -0.13144247
000140 29 3a 12 bd 1b e5 d5 b9 8e b2 83 b9 af ef 58 b9
       -0.035699997 -0.00040797223 -0.000251193 -0.00020688654
000150 ba 78 18 b9 e4 30 2f 39 92 04 b9 39 03 76 51 b8
       -0.00014540824 0.00016707514 0.00035289355 -4.993939e-05
000160 78 1b a4 39 f4 1a f3 39 80 37 12 bd 6e 89 78 bd
       0.00031300983 0.00046368653 -0.03569746 -0.06067794
000170 45 72 55 bc 4a b2 5b bd 74 50 5e bd 11 c7 2d 3b
       -0.013027732 -0.053636827 -0.054275945 0.0026516358
000180 a3 a5 b5 bc 06 35 29 bd a7 a7 e3 bb ca 96 90 b9
       -0.022173708 -0.041310333 -0.006947476 -0.00027578167
000190 66 4a c7 b9 2d 70 ea b9 a7 cc 05 3a 17 16 9c 39
       -0.0003801167 -0.00044715535 0.0005104043 0.00029771097
0001a0 ef 88 02 39 30 60 48 39 42 cb 58 38 2c b3 28 b8
       0.00012448778 0.00019109319 5.168771e-05 -4.0221188e-05
0001b0 3f 74 1c 3d 39 da f3 3b a7 90 ac 3c 95 95 3b 3d
       0.0381968 0.0074417857 0.02106507 0.04579695
0001c0 4d e0 a4 3d cd 25 9f 3d e7 ed df bc be f5 44 3c
       0.080505945 0.07770882 -0.02733512 0.01202148
0001d0 46 94 2f ba 02 c5 c4 38 31 61 df 38 e3 81 0c 39
       -0.00066978147 9.382704e-05 0.00010651572 0.00013399827
0001e0 a6 c1 03 b9 06 1e 0f b9 10 e1 02 b9 87 97 64 b7
       -0.00012565273 -0.00013648727 -0.00012481608 -1.3625139e-05
0001f0 ab a0 bd 36 0c 7a b3 37 12 2c 0f bd 04 5c 8e bb
       5.651343e-06 2.1395295e-05 -0.034954138 -0.004344465
000200 cd be a0 3b e1 3a a7 bd 64 20 d3 3e 4a b8 83 be
       0.0049055577 -0.08165527 0.4123565 -0.2572654
000210 de 40 44 bd e6 6f 1b 3d 17 57 a3 bc 69 0e 97 3d
       -0.047913425 0.03794851 -0.019938989 0.073757954
000220 0f a0 72 3e 9d 5e a2 be 80 c4 13 3e ff 96 83 3d
       0.2369387 -0.3171281 0.14430428 0.064252846
000230 d1 76 3a be 2e 4e 41 3d d4 c2 33 3e 71 85 75 be
       -0.18209387 0.0471937 0.1755479 -0.23976685
000240 75 52 0e be 89 3b 02 3e 5e d1 87 3d 81 7c 8c 3e
       -0.13898642 0.12718023 0.066317305 0.2743874
000250 2d fa fc bd 49 9a 80 be c7 ab f6 bd b6 ce 67 3d
       -0.12352405 -0.2511771 -0.12044483 0.05659362
000260 e6 97 b5 3d 2a d7 43 3a ee ac fb 39 26 ca 71 39
       0.08866863 0.00074707216 0.00048003293 0.00023058857
000270 c1 41 09 3a 16 3b aa 39 50 63 4e 39 1f 2c 45 ba
       0.00052359333 0.0003246895 0.00019682688 -0.0007521528
000280 8d bf 57 ba 07 09 48 ba 2d aa 06 3a 54 18 30 39
       -0.00082301424 -0.000763074 0.00051370525 0.00016793731
000290 be d8 1b b9 89 ef f5 38 b2 25 2a b9 64 86 c9 b9
       -0.00014862695 0.00011727127 -0.00016226506 -0.00038437836
0002a0 3f 23 d9 38 6d a3 c3 b8 f0 58 55 b9 1e d7 9a 31
       0.000103539314 -9.328765e-05 -0.00020346395 4.506446e-09
0002b0 c1 07 b5 30 0e e9 ee 30 59 20 ea b0 70 54 22 b0
       1.3171687e-09 1.7383017e-09 -1.7034935e-09 -5.905525e-10
0002c0 5c b6 a4 b0 1c 93 07 32 1f a8 d4 30 ac 0a b5 30
       -1.19844e-09 7.891483e-09 1.5472813e-09 1.3172516e-09
0002d0 ac 1f c4 37 9f a2 34 b7 ec 49 31 38 ba 94 97 36
       2.337977e-05 -1.0766699e-05 4.2268934e-05 4.5174647e-06
0002e0 5c 67 0b b8 05 87 81 b6 d2 ee ad b7 9e f1 55 b8
       -3.3236443e-05 -3.860218e-06 -2.0734416e-05 -5.100818e-05
0002f0 73 e0 99 36 fd 7d 49 be 72 28 b4 bd 71 9c e7 bd
       4.5858847e-06 -0.19676967 -0.08796777 -0.11309136
000300 6f cd 54 3e 9f db f4 3d fe 45 f2 3d 7d 49 54 bc
       0.20781492 0.11955952 0.11829756 -0.012956974
000310 bd 3f d0 bc 64 38 e6 bc de 84 ab be 3e c1 94 3d
       -0.025421018 -0.028103061 -0.33499807 0.072634205
000320 8b 9f 9c 3e 1e 48 87 3a 36 72 ec bc eb 08 38 bc
       0.30590472 0.0010321175 -0.028863054 -0.011232595
000330 f1 f4 25 bd fc 29 3e 3d b0 0c 07 bb a9 33 e3 b8
       -0.040516797 0.04642676 -0.0020606928 -0.00010833826
000340 5b 84 16 b9 42 e1 de b8 28 a8 6a 38 35 0c 36 38
       -0.00014354421 -0.000106277424 5.5946555e-05 4.340355e-05
000350 d4 f2 b9 38 ff 5d 92 38 0f e3 0c 38 50 58 90 38
       8.866718e-05 6.979331e-05 3.3590066e-05 6.8829046e-05
000360 fa 54 cf 3c 57 28 d1 bd b2 7d 8c 3c 4c 34 3e 3e
       0.025309075 -0.10212772 0.01714978 0.18574637
000370 8e b5 b8 be 36 92 7c 3e a2 71 51 bc 33 8b 21 bd
       -0.36076015 0.2466515 -0.01278344 -0.03943939
000380 6a 06 28 3d a6 64 a6 3e 9a 67 25 bd 67 26 76 be
       0.041021742 0.32498664 -0.040382005 -0.24038087
000390 94 01 fe bb 24 0e 90 bd 88 e0 12 3d 00 75 ca bd
       -0.007751653 -0.07033947 0.03585866 -0.09885597
0003a0 88 e8 86 3c e5 36 97 3d 42 40 8f 3d 42 c7 4d bd
       0.016468301 0.07383517 0.06994678 -0.050238855
0003b0 7c 41 20 bd fb 46 04 bd c7 91 0c be b7 a0 84 bd
       -0.03912495 -0.032294255 -0.13727485 -0.064759664
0003c0 8c 07 1c bd 0e d8 1a bd 6b 49 b7 3d 68 62 72 3d
       -0.038093135 -0.037803702 0.0894955 0.05917588
0003d0 52 d2 91 be c7 84 0a 3d 74 c1 8b 3c d3 55 4e be
       -0.28480774 0.033818033 0.01706002 -0.20149927
0003e0 c8 9c a7 3d ef c0 fd 3c c0 1d 86 3e a9 13 03 3b
       0.081842005 0.030975787 0.26194572 0.0020000732
0003f0 c8 ed 13 3d d2 e2 d5 bc 00 21 28 3e 56 c3 43 be
       0.036115438 -0.026109133 0.16418839 -0.19117483

network.frontend.layer1.conv_1.bias f4 [32]
000000 89 e5 35 39 37 ba 87 b6 ba dc 4e 31 08 f1 87 b9
       0.00017347014 -4.044992e-06 3.0102414e-09 -0.0002592879
000010 c7 4e d0 37 63 83 d5 b8 7a 33 12 30 2f 87 f7 39
       2.4832216e-05 -0.00010181104 5.3187643e-10 0.0004721223
000020 5f 07 cc b9 67 08 68 31 bc d6 16 b9 42 08 89 b0
       -0.00038915404 3.376522e-09 -0.0001438511 -9.970409e-10
000030 c3 7d 5f b8 62 08 8c b0 e1 7a 04 3a 67 38 4d ba
       -5.3284468e-05 -1.0188723e-09 0.0005053711 -0.0007828534
000040 9b d2 2a 3a 24 7e 9a b2 fd 86 35 b0 b6 70 b7 a9
       0.0006516368 -1.7985322e-08 -6.6039246e-10 -8.146385e-14
000050 7e a1 a7 af b4 8d bf 39 dd 33 d5 39 3b 52 b6 2f
       -3.049187e-10 0.00036535936 0.00040665167 3.3164035e-10
000060 8d ce 0a ba 5d 6a 8f 39 1a 65 3d b8 dc fc 0c 39
       -0.00052950607 0.00027354332 -4.515527e-05 0.00013445638
000070 4c 3f ca 39 d4 e6 9e b9 8b b4 87 39 ff f7 61 ba
       0.00038575602 -0.0003030809 0.00025883722 -0.0008620023

network.frontend.layer1.bn_1.weight f4 [32]
000000 4e d3 61 3e 0f e2 bb 3d 59 ed 00 38 a9 9e 41 3e
       0.22053263 0.09173977 3.0738625e-05 0.1890818
000010 ed a2 b5 3e 9f 8c ce 3e 20 51 d4 34 46 e6 0e 3f
       0.35475865 0.4034166 3.9547103e-07 0.5582012
000020 2b c3 cf 3e 99 df 93 37 e6 99 a6 3e c0 f0 49 37
       0.4057859 1.7627886e-05 0.3253929 1.2036588e-05
000030 1b fc cc 3e 39 6f 7e 37 3a e1 1d 3f da cd 50 3f
       0.4003609 1.5165476e-05 0.61671793 0.81564105
000040 56 e4 f3 3e 46 7f f4 37 e8 d2 e5 34 fc 29 9a b0
       0.47635144 2.9146333e-05 4.2808028e-07 -1.1216907e-09
000050 bd f6 a0 b6 2a 50 cf 3e 8c c7 1a 3f e5 84 4b 37
       -4.7970957e-06 0.40490848 0.60460734 1.2130685e-05
000060 40 95 e4 3e 4e 5f f9 3e 67 34 20 3f 32 d5 f2 3e
       0.4464512 0.48705524 0.6257996 0.4742828
000070 2c b4 08 3f 23 bd c4 3e d5 9e e8 3e 2d 85 85 3e
       0.5339992 0.3842555 0.4543368 0.26078168

network.frontend.layer1.bn_1.bias f4 [32]
000000 f6 08 ad bd ba 4c 13 3f 9e 22 27 38 6a c2 8b be
       -0.08448975 0.5753895 3.9848142e-05 -0.27296764
000010 05 93 3c 3e 43 fc 14 be 10 04 b7 36 8c 1d 87 bd
       0.18415459 -0.14549355 5.454298e-06 -0.065974325
000020 01 04 82 be d5 2f b2 38 98 48 8a 3e 98 d5 9f 38
       -0.2539368 8.496611e-05 0.2700851 7.621496e-05
000030 c2 13 f9 3e 0c de b4 b7 1f 86 1f be 09 bb 20 3c
       0.48647887 -2.156107e-05 -0.15578507 0.009810218
000040 7d a7 8f be 89 9c c0 b8 9a 59 0c 39 28 f6 34 b6
       -0.2805747 -9.1844304e-05 0.0001338482 -2.6965372e-06
000050 55 44 80 b7 21 ce 79 bd 2a 38 0e 3e d9 7f 95 37
       -1.5290609e-05 -0.060987595 0.13888612 1.7821718e-05
000060 a2 fe d5 bd 3c c5 a2 3d 4f e1 cd 3d b7 cd 1d be
       -0.10448958 0.07947776 0.1005274 -0.15410505
000070 bd cc a1 be aa 3d 36 be 35 5e b4 be 0b 55 c0 bd
       -0.31601515 -0.1779696 -0.35228124 -0.09391221

network.frontend.layer1.bn_1.running_mean f4 [32]
000000 cb 1e 5d 3c 60 98 f0 bc 9c 42 e9 b7 d7 aa f2 3a
       0.013496111 -0.029369533 -2.7806782e-05 0.0018514049
000010 c8 d7 30 bc cf 1f 1e bb 95 75 6f 37 83 28 4f 3c
       -0.010793634 -0.0024127846 1.4272887e-05 0.012643936
000020 02 b5 bf ba 05 ee 3b b8 94 d7 2d 3d 0c f5 78 b7
       -0.0014626088 -4.4805947e-05 0.04244192 -1.4839006e-05
000030 81 3a 1d bd d3 a6 21 37 97 dc 1a bb 27 8a 18 bb
       -0.03838587 9.63519e-06 -0.0023630017 -0.0023275705
000040 85 e7 8a 3b 2d e3 46 b7 89 01 9d 37 67 54 c7 b0
       0.004239025 -1.1854613e-05 1.8716573e-05 -1.4503144e-09
000050 88 e1 b5 36 51 4f 63 b9 b5 d6 58 ba fc e4 cb b6
       5.4204756e-06 -0.00021677955 -0.000827174 -6.0765287e-06
000060 22 eb 78 38 2c 82 f2 3a 1b 94 16 3d a7 6c 57 ba
       5.9346792e-05 0.0018501929 0.036762338 -0.00082177896
000070 3f f4 12 bd 16 31 f4 3a 0d 07 2f 3c 6c 12 bf 38
       -0.035877462 0.0018630351 0.010682833 9.111021e-05

network.frontend.layer1.bn_1.running_var f4 [32]
000000 15 a4 83 3a 8d 96 31 3b 5f 83 98 33 fb e3 41 3a
       0.0010043407 0.0027097792 7.101948e-08 0.00073963375
000010 41 0f fa 3a 06 32 2e 39 f6 c7 9e 32 a4 1c 75 3b
       0.0019078032 0.00016612568 1.8484553e-08 0.0037401104
000020 8a 7c 82 3a 0c 50 b4 32 80 ae bf 3b 46 1e 66 32
       0.0009955328 2.0991159e-08 0.0058496594 1.3394645e-08
000030 66 96 a0 3b c0 bd c7 30 11 27 fb 39 98 f7 41 3b
       0.0049007414 1.4533086e-09 0.00047903557 0.002959704
000040 88 1a b4 39 b6 5a c5 33 21 2d 25 32 49 e6 c6 ab
       0.00034352043 9.1900276e-08 9.614525e-09 -1.4132663e-12
000050 79 75 3d 2f 33 7e cc 3a f4 eb af 3a 5b b2 cc 30
       1.7231185e-10 0.0015601575 0.001342176 1.4893645e-09
000060 94 c5 02 3a 74 26 22 3a 57 19 97 3b a8 eb d0 3a
       0.0004988548 0.00061855395 0.004611175 0.0015939372
000070 0b 03 a8 3b 50 e4 a5 39 e8 b3 90 3a 70 87 1c 38
       0.005127316 0.00031641359 0.0011039944 3.7319434e-05

network.frontend.layer1.conv_2.weight f4 [32, 32, 3, 3]
000000 4a 1e 4b bd e1 d6 f7 bc 37 73 02 bd 0d 73 01 bd
       -0.049589433 -0.03025383 -0.03184816 -0.03160386
000010 7b 60 13 bc 9d ba 98 bc d9 3d 11 bd 49 92 b3 bc
       -0.008995171 -0.018643672 -0.035459373 -0.02192034
000020 5d c5 e5 bc 8e 3c 12 3d 55 12 d0 3c 90 c8 60 3d
       -0.028048212 0.03570228 0.025399366 0.05487877
000030 ec ee f5 3c f0 55 04 3c 59 5e 2c 3d c2 c0 9b 3d
       0.030021153 0.00807713 0.042082164 0.07605125
000040 c2 a7 55 3d 91 2b 95 3d f2 c3 8d b9 37 d1 8a b9
       0.05216194 0.072837 -0.00027039606 -0.00026477288
000050 2b 34 95 b9 5d 70 3a 39 d1 1e 87 39 11 0b 8b 39
       -0.00028458363 0.00017780201 0.00025772167 0.0002652039
000060 5d 70 b1 b9 13 00 92 b9 9b 23 82 b9 1d 8b 5e bc
       -0.00033843788 -0.00027847345 -0.0002482206 -0.013582972
000070 79 35 90 bc 75 d3 1e bd 2f 26 d9 3b 01 8d 45 3b
       -0.017603623 -0.03877588 0.0066268663 0.003014386
000080 cf f9 fc bc cc 35 65 bc e2 58 8d bc 6a 4a e9 bc
       -0.030880837 -0.013989877 -0.017254297 -0.028477866
000090 03 65 92 bb 74 f7 c7 bc c3 b5 26 3d 0e f6 1f 3d
       -0.004467608 -0.024409987 0.040700685 0.039053015
0000a0 44 e3 32 3c 65 d2 87 3d 0a 28 8f 3c a7 44 75 3b
       0.010918442 0.066319264 0.017475147 0.0037424953
0000b0 37 27 28 3d 5a 84 f2 bc d2 8d e8 bb be 03 c3 ba
       0.041053023 -0.029604126 -0.0070969844 -0.0014878435
0000c0 f3 a1 87 3c eb df 92 3c d4 27 92 bb 32 3d c3 bc
       0.016556716 0.017929038 -0.0044603143 -0.023832891
0000d0 75 30 06 3d 88 f6 ca 3c 50 73 ae 39 3e a2 c2 39
       0.032761056 0.024775758 0.0003327378 0.00037123443
0000e0 97 4b af 39 6e 9e 97 37 c0 03 c9 38 da a9 a0 38
       0.0003343492 1.8074377e-05 9.5851254e-05 7.661032e-05
0000f0 6e b8 72 39 aa a6 9f 39 e0 93 97 39 b2 18 69 bc
       0.00023147624 0.00030451018 0.0002891114 -0.014227079
000100 ed 0a 4b 3c cb 9c 3b 3c 2f 3a 79 bc cd b8 ef 3b
       0.012392742 0.011450957 -0.015211626 0.007315731
000110 e0 8c b2 bc ec a4 3d 3c 1a a8 b2 3c e8 eb f0 bc
       -0.02179569 0.011574965 0.021808673 -0.029409364
000120 7d c6 a5 3d bd 91 60 3d a4 eb c0 3c b7 ad 2a 3d
       0.08094499 0.054826487 0.023549862 0.041669574
000130 da ab 6d 3d b6 a1 1d 3d f8 21 e0 bb 0c 61 41 3b
       0.05802522 0.038484298 -0.006839987 0.0029507307
000140 a0 e3 c6 bc aa b0 a3 b8 15 ea c1 b8 ff 50 b6 b8
       -0.024278462 -7.805352e-05 -9.246558e-05 -8.693523e-05
000150 77 af a8 b7 7a 72 f1 b7 ac 41 50 b8 97 77 d2 38
       -2.0108868e-05 -2.8782746e-05 -4.9652226e-05 0.00010035856
000160 58 65 bd 38 97 9b c2 38 ba 08 9b bc de 14 b3 bc
       9.031099e-05 9.279622e-05 -0.01892506 -0.021860536
000170 67 f6 f5 bc 47 37 de bc 53 09 ff bc d0 03 17 bd
       -0.03002472 -0.027125968 -0.031132376 -0.03686887
000180 6c 24 a4 bb f2 8a a0 bb 8b 86 93 bc 33 00 eb 38
       -0.0050092246 -0.004899376 -0.018008491 0.0001120571
000190 12 dd 00 39 af 9f f6 38 96 e9 14 39 22 e6 3b 39
       0.00012289386 0.000117599375 0.00014201397 0.00017919441
0001a0 17 dc 42 39 ec 86 89 38 9d 83 bc 38 53 76 cc 38
       0.00018583272 6.5578e-05 8.9890535e-05 9.7495176e-05
0001b0 ee 01 ea bd c0 a5 10 be e4 1e 01 be 56 0f be bd
       -0.11426149 -0.14125729 -0.1260944 -0.09280269
0001c0 8f a9 10 be c7 bf f8 bd b8 93 c2 bc 78 27 7e bd
       -0.14127181 -0.121459536 -0.023752078 -0.06204936
0001d0 7a b3 65 bd 69 77 fb 37 0d 4c 1d 38 22 86 25 38
       -0.056079365 2.9977136e-05 3.7502545e-05 3.9463986e-05
0001e0 4d af 97 b7 3d ed cd b6 9d ae 84 b7 5c 7a 3c 37
       -1.8082234e-05 -6.1370943e-06 -1.5816937e-05 1.1234162e-05
0001f0 23 ea f5 37 c5 51 de 37 25 71 77 3c 13 95 90 3d
       2.9315304e-05 2.650254e-05 0.015102659 0.07059684
000200 de 8e cc 3c 0a a2 f6 bc e6 92 10 bb 7c 5c d2 ba
       0.024970468 -0.030106563 -0.0022060215 -0.0016049291
000210 23 a7 a1 bc f6 30 78 3d 57 e2 6f 3c 42 b4 11 3d
       -0.019733017 0.060593568 0.014641366 0.035572298
000220 6b d4 ce bc d8 e8 81 3c df 0b 95 3d a1 8c 4b 3c
       -0.025247773 0.015858099 0.07277655 0.012423665
000230 e6 6b 98 3b 1c 1e 26 3d 93 c8 05 bb c5 d4 83 3a
       0.0046515344 0.04055606 -0.002041374 0.0010057917
000240 ff 35 d1 bb 7e 83 0f bd 2b 54 dc bc 80 2c b7 39
       -0.0063846107 -0.03503751 -0.026895603 0.00034937635
000250 c0 bf 87 3c 3c 2f dc 3c 09 6e d5 bc 36 18 e3 bc
       0.016570926 0.026877992 -0.026053445 -0.027721506
000260 9f ef 3f bd ff 5b a3 b9 35 99 4d b9 69 cd 48 b9
       -0.04685938 -0.00031158325 -0.00019607398 -0.00019150008
000270 39 89 a7 b6 eb f3 3f 39 44 8f 32 39 aa 56 e3 b9
       -4.9929627e-06 0.00018306046 0.00017028773 -0.00043361384
000280 cc 2d b1 b9 92 49 aa b9 3f 1c 3a ba ff 76 15 ba
       -0.00033794192 -0.0003247974 -0.0007099546 -0.0005701631
000290 db c4 12 ba 5f 51 27 ba f6 8b 0d ba a3 f1 05 ba
       -0.0005598792 -0.00063826697 -0.0005399579 -0.0005109554
0002a0 73 11 25 ba f7 52 02 ba 48 2d fc b9 2a ce 42 b9
       -0.00062968506 -0.0004971469 -0.00048098923 -0.00018578084
0002b0 33 34 51 b9 e5 dc 12 b9 55 75 7a 37 91 33 14 b3
       -0.00019951239 -0.00014005935 1.492848e-05 -3.4505835e-08
0002c0 0c 25 db 38 90 02 31 b8 6a 79 4a b8 ad 79 57 b5
       0.00010449634 -4.2202475e-05 -4.827363e-05 -8.0270803e-07
0002d0 d4 08 87 39 82 69 8a 39 94 b0 43 39 df a5 e0 b7
       0.00025755784 0.0002640002 0.0001866243 -2.678012e-05
0002e0 77 7a 7d b1 06 8e f2 b8 49 82 86 38 4e 0b 84 38
       -3.6885959e-09 -0.00011565913 6.4138854e-05 6.296356e-05
0002f0 93 34 1e 36 85 49 88 bd 23 96 2a bd 6e 5a 37 bd
       2.3574437e-06 -0.06654648 -0.041647088 -0.044763975
000300 d6 15 4e bc fb fc a6 bc f4 e4 dc bc 0f 51 4e bd
       -0.012578448 -0.020384302 -0.026964642 -0.050370272
000310 4e 28 38 bc aa 45 05 3b ce 9f 42 3d 37 5c 7b bc
       -0.011240078 0.0020335712 0.047515683 -0.01534181
000320 37 2e 9f 3c 1c 59 99 3d 3e 40 f6 bc ff 9d c4 3c
       0.019431217 0.074876994 -0.03005993 0.02400112
000330 0f 81 7d 3d ec 2a 96 3c b8 35 7b 3d a5 3c 14 b9
       0.061890658 0.018331014 0.061330527 -0.00014136972
000340 13 d3 1f b9 e5 3c 0d b9 7f c0 25 37 d5 11 b5 b4
       -0.00015242053 -0.00013469493 9.879585e-06 -3.3726852e-07
000350 91 9c 1c 38 72 64 e5 37 be 5b 15 37 0b 18 c9 37
       3.7339112e-05 2.73457e-05 8.9024525e-06 2.3972263e-05
000360 9e 50 77 bc 93 e8 9f 3c c9 c2 ce ba 32 46 90 bc
       -0.015094904 0.01952008 -0.0015774603 -0.017611597
000370 f2 f3 2d 3d 68 3b 8c 3a b2 cd bd bc f2 8e 36 3d
       0.042468973 0.0010698857 -0.023169372 0.044569917
000380 a6 d8 da bb b7 34 18 bc 60 b1 f4 3c a7 f8 b1 bc
       -0.0066786585 -0.009289912 0.029869735 -0.021725012
000390 2f 64 a2 bc 22 d3 8b 3c cd 62 b8 3a d6 c4 0d b9
       -0.019823162 0.01706845 0.0014067531 -0.00013520135
0003a0 e1 bc 69 3c 62 1b c2 3c de 72 da 3c 66 67 96 3c
       0.014266224 0.023694698 0.026666101 0.018359851
0003b0 e1 3b 1f 3c c8 e7 8b bb d7 ed 25 3a a6 c5 16 bc
       0.009718866 -0.004269574 0.00063296914 -0.0092023965
0003c0 a6 b2 eb 3c f8 25 2e 3d 53 80 03 3d b7 7f ce 3c
       0.02877171 0.04251668 0.0321048 0.025207384
0003d0 dc 0f b0 3b 4b 39 fd 3b dd fd 80 3d 21 55 4b bc
       0.0053729843 0.007727777 0.062984206 -0.012410433
0003e0 77 24 0a 3d 27 93 88 3c 8d 55 36 bc 10 fa 49 3d
       0.03372618 0.01667173 -0.011128795 0.049310744
0003f0 51 8f 3a bc d5 e8 d7 3a 65 e3 ba bc f8 68 f0 bc
       -0.011386708 0.0016472588 -0.022813508 -0.029346928

network.frontend.layer1.conv_2.bias f4 [32]
000000 00 49 ea b4 87 10 27 39 2d b3 78 37 b8 f7 b0 37
       -4.363901e-07 0.00015932518 1.48236695e-05 2.1096188e-05
000010 11 c9 30 b7 81 71 9f b7 1b a9 98 38 2f 81 d1 36
       -1.0537232e-05 -1.9007131e-05 7.279423e-05 6.2437243e-06
000020 e0 84 30 b8 bc f1 56 38 15 7b ae b7 63 1c 59 38
       -4.208542e-05 5.124671e-05 -2.0799731e-05 5.176327e-05
000030 20 38 13 38 35 d9 d1 38 77 30 98 b8 18 86 38 b8
       3.50998e-05 0.000100063546 -7.256952e-05 -4.3993903e-05
000040 58 1f 23 b8 a7 6b 9e 36 5b 02 3c b8 3e 2b 0f 38
       -3.889142e-05 4.7212993e-06 -4.4824887e-05 3.413413e-05
000050 67 a1 b0 38 14 0d 7e 33 2f 4b be 38 12 a0 97 b7
       8.4223975e-05 5.9150878e-08 9.07391e-05 -1.8075141e-05
000060 46 68 a3 37 17 37 8b 38 3d f1 4b b8 9b 3a 4a b6
       1.947967e-05 6.638298e-05 -4.8623642e-05 -3.0134458e-06
000070 9a 69 a6 37 ed a8 c2 37 d9 cb f6 b7 c8 ea fa 37
       1.9837917e-05 2.3205264e-05 -2.942041e-05 2.9911651e-05

network.frontend.layer1.bn_2.weight f4 [32]
000000 36 6a 21 3e 22 7b fb 3e 65 01 f3 3e 98 36 ef 3e
       0.15763173 0.4911738 0.47462 0.4672134
000010 5f 6c e0 3e f3 1b 6b 3e 22 f0 b0 3e 59 0e a9 3e
       0.4383268 0.2295988 0.34558207 0.3301876
000020 7a b3 c2 3e 68 7c d7 3e 25 95 d1 3e ba 48 06 3f
       0.38027555 0.42087102 0.409341 0.5245472
000030 ce 5e df 3e 2e f0 cf 3e 48 c8 09 3f ca b3 d3 3e
       0.43627018 0.4061293 0.5382123 0.41348106
000040 56 35 ae 3e 49 dc 19 3e ca a7 38 3e f9 50 01 3f
       0.34025067 0.15025438 0.18032756 0.5051418
000050 b1 b1 e5 3e 82 6d db 3e bc f5 7a 3e f2 ad 64 3e
       0.4486213 0.42856985 0.24507803 0.2233198
000060 7a ba 12 3f 9b ba e8 3e 0d a7 a2 3d fb 6b 24 3e
       0.5731579 0.4545487 0.07942019 0.16056816
000070 d6 af e7 3e 08 fc 10 3f 18 a9 e7 3e b6 38 56 3e
       0.4525134 0.5663457 0.45246196 0.20920071

network.frontend.layer1.bn_2.bias f4 [32]
000000 71 da 58 be d1 44 25 be cb fa ad be ce f8 f9 bd
       -0.21177079 -0.16139533 -0.33980402 -0.12205659
000010 be 73 36 be 15 ef 7f bd 35 ef 0f be 7c 69 71 be
       -0.1781759 -0.062483866 -0.14056094 -0.23575395
000020 6f 81 e7 bd e8 67 f9 bd a8 4b 85 be ed f5 37 be
       -0.113039844 -0.12178022 -0.26034284 -0.17964907
000030 f5 dc 4a be ac 84 1a be b6 99 bb bd 88 2c 21 be
       -0.19810851 -0.15089673 -0.091601774 -0.15739644
000040 50 45 dd be 8f e2 01 be a5 d0 38 be 00 43 b8 bd
       -0.43216944 -0.12684081 -0.18048342 -0.08997154
000050 06 3d 80 be 60 e6 84 bd 4c 03 57 be cc f8 04 be
       -0.25046557 -0.06489253 -0.20997351 -0.12985533
000060 2d 26 82 bc 67 3f ff bd 82 73 34 be 6f b6 9b bd
       -0.015887344 -0.12463265 -0.17622188 -0.07603156
000070 78 5e 19 be 38 87 54 bd 3b ad 2c be 9d 46 d0 bd
       -0.14977443 -0.051886767 -0.16862957 -0.101697184

network.frontend.layer1.bn_2.running_mean f4 [32]
000000 6f 5b 8a bd e5 d1 40 bd f0 65 6e bf f7 f1 0f bd
       -0.06755721 -0.04707517 -0.93124294 -0.035142865
000010 03 4f 4f 3e 69 ef 27 3c 7b 4b 6a be d1 73 89 3d
       0.20244984 0.010249951 -0.22880356 0.06711543
000020 e8 ca 43 be 61 74 a8 3e 94 28 67 39 f1 bf 75 3e
       -0.19120371 0.3290129 0.00022044993 0.23999001
000030 06 8c 63 3c 69 e9 12 be fe 88 95 3d b0 d1 3e bd
       0.013888365 -0.14346851 0.0730152 -0.046586692
000040 1e de b3 bd 70 d9 48 3d 6f 34 dc be f4 59 74 3d
       -0.087826 0.04903549 -0.43008754 0.0596561
000050 5c 96 00 bf fb 9d b3 bd 94 1c 1f 3e 33 03 92 3d
       -0.5022943 -0.08770367 0.15538245 0.071295165
000060 56 ba 22 be dc 5e e3 3d a5 97 df bd 3a 3b f3 3d
       -0.15891394 0.11102077 -0.10917596 0.11876531
000070 b3 ef 08 be 27 82 43 bc 7f 16 4d be 15 25 83 3c
       -0.13372688 -0.011932886 -0.20028113 0.016008893

network.frontend.layer1.bn_2.running_var f4 [32]
000000 39 68 0a 3d a7 6f bf 3d f8 a8 8d 3d 61 13 a9 3e
       0.0337908 0.09347468 0.06916994 0.33022597
000010 91 8c 34 3e 73 be f7 3d 28 ee b0 3d c1 20 bc 3d
       0.17631747 0.12096872 0.08639175 0.09185935
000020 5f d7 5f 3d d0 3f f7 3d bd 03 93 3d 28 90 30 3e
       0.054648753 0.12072718 0.071784474 0.17242491
000030 7f 23 f1 3d b2 d3 ee 3d 75 49 04 3e 97 57 32 3e
       0.117743485 0.116614714 0.12918647 0.17416225
000040 4b e2 5c 3d 58 b6 b7 3c 3a ea b1 3c d5 2e 85 3e
       0.053926747 0.022425815 0.021718133 0.26012293
000050 d6 6e b4 3d 3c 0b a8 3e fa 6d 80 3d 05 6f 03 3e
       0.08810203 0.3282107 0.06270976 0.1283532
000060 36 3c e3 3e 98 93 1c 3e 92 18 08 3d 10 48 63 3d
       0.44381875 0.15290678 0.033226557 0.055488646
000070 c7 93 22 3e ee c1 d6 3e 62 3e c2 3d 19 c8 80 3d
       0.15876685 0.41944832 0.09484555 0.062881656

network.frontend.layer1.conv_3.weight f4 [32, 1, 3, 3]
000000 28 c3 45 3c 31 f9 6c 3b 52 6f ee 3c 9f 7c 20 bd
       0.012070455 0.0036159272 0.029105816 -0.039181348
000010 1d 98 5c bd 07 83 ed bc d2 f4 a0 bb 3f 21 dd bc
       -0.053856004 -0.028993143 -0.0049119974 -0.026993392
000020 39 b6 2a 3a fc de 51 3d 76 df ea 3c fc 79 06 be
       0.00065121386 0.051238045 0.028671008 -0.13132471
000030 81 c0 be 3c d0 b0 bd bc b6 d0 95 bd fb c9 e9 bc
       0.023285152 -0.0231556 -0.07315199 -0.028538695
000040 30 1d b7 bc 60 ac 8e bd 2c 62 17 3d 5b 7d 76 3d
       -0.022352785 -0.06966472 0.03695886 0.060178142
000050 23 d3 9b 3c 7f 73 5e 3d 5b fb 55 3b ea e8 2b 3c
       0.019021576 0.054309364 0.003265104 0.010492543
000060 47 ad 6d 3d ed 81 a8 3d fe 0a 2c 3d a3 88 86 3c
       0.05802658 0.082279064 0.04200267 0.016422575
000070 77 b8 29 3d cd 2e 2c 3d 9c a1 65 3d 01 fb 65 3d
       0.041435685 0.04203682 0.056062326 0.05614758
000080 13 6e 5b 3d 61 aa 58 3d d4 2b 5a 3d c5 db ed 3c
       0.05357177 0.05289686 0.053264454 0.029035458
000090 69 e9 9e bc c0 56 5e bd f5 a3 e5 bc 17 fd 7f bc
       -0.019398408 -0.05428195 -0.028032282 -0.015624306
0000a0 db df db bc b8 0b 8d bc 74 98 a5 bd 5a 8b 5f bd
       -0.026840141 -0.017217502 -0.08085719 -0.054576255
0000b0 61 32 f9 bc 0c 4e 0d 3c e2 b0 46 bb 09 bb 63 3d
       -0.03041953 0.008624565 -0.0030317833 0.055598292
0000c0 c4 00 4a 3c 05 58 6b 3d 4b f6 60 3b 39 55 81 3c
       0.012329284 0.05745699 0.003432649 0.015787708
0000d0 a0 7b 57 3d b0 dc 49 3d fe 8c 9f bd f3 7d 85 bb
       0.052608132 0.04928273 -0.07790564 -0.004073852
0000e0 b8 95 b4 bb 86 50 b1 bd 70 b6 33 bc b7 7f 74 3d
       -0.005511012 -0.08657937 -0.010968789 0.05969211
0000f0 9c b1 61 bd 7e b7 0f bd 80 d9 b5 ba f0 0a 1d 3c
       -0.055101022 -0.0350871 -0.0013874024 0.009585127
000100 16 8e 78 bd 47 e2 9a bc 1a 19 a3 3b bd 4e 7f bd
       -0.06068238 -0.018906726 0.0049773576 -0.06233095
000110 73 00 81 3b c3 5f 09 3d 77 5a 93 bd cc 6a 1f bd
       0.003936821 0.03353859 -0.07194989 -0.03892021
000120 52 79 5e bd 83 a8 48 bd e5 99 72 bd 6d f5 44 bd
       -0.05431492 -0.04898883 -0.059228797 -0.04808562
000130 32 a5 d9 bc 6f 4d bf bc b5 48 e4 bc c2 f7 79 bc
       -0.02656803 -0.023352353 -0.0278667 -0.015256824
000140 5c df 31 bd 79 cb f7 3c d1 29 21 3d 9a c5 26 3d
       -0.043425903 0.03024839 0.03934652 0.04071579
000150 c7 1d 24 3d 85 75 a3 3c 25 f2 bd 3c 8e b4 30 3d
       0.04006746 0.019953499 0.023186753 0.04314094
000160 45 97 3a 3d 82 34 20 3d ce 24 86 3d ae 36 62 3d
       0.045554418 0.039112575 0.06549989 0.055227928
000170 29 b3 32 3d 15 24 43 bb ce 60 9b 3c b6 8c b5 3c
       0.04362789 -0.0029776145 0.018967059 0.022161823
000180 1a 2c 1e 3d d9 20 ff 3c e3 1b 4b 3d 80 85 77 3d
       0.038616277 0.031143593 0.04958714 0.06043005
000190 04 d4 15 39 03 91 84 3d 4d ab ff 3c 07 3b 47 bb
       0.0001428873 0.06472971 0.031209612 -0.0030400173
0001a0 ba 9e 46 3d 9f 75 65 3d 44 87 2f 3d 36 94 fd 3c
       0.048491217 0.056020375 0.04285361 0.030954462
0001b0 82 99 8e 3d 97 c3 fb 3c 2a 50 9d 3c 84 cb 01 3d
       0.06962873 0.030732913 0.019203264 0.03168823
0001c0 91 5a 9c 3b 86 f3 3d 3d cf b0 8a 3d 85 07 91 3c
       0.0047715385 0.04637482 0.06772005 0.01770378
0001d0 c2 63 95 3c 4b e7 5a bc a6 50 b2 bc ff 17 15 bd
       0.018236045 -0.013360809 -0.021766972 -0.036399838
0001e0 1b 45 fb bc e1 ed 78 bd 61 6e 82 bd e7 9c 84 bc
       -0.0306726 -0.060773734 -0.06368709 -0.016188098
0001f0 37 00 af bc 36 37 1a bd 2c 3f d6 3c 46 8f ea 3c
       -0.021362407 -0.03765031 0.02615317 0.028632771
000200 df d6 9a 3c eb 8c 17 3e 53 71 aa 3c f5 c3 20 bd
       0.018901287 0.1479985 0.02080599 -0.03924938
000210 e4 a7 8a 3d 03 94 a6 3c 72 0e 7b bc f2 4a 9c 3c
       0.06770304 0.02033425 -0.015323268 0.019078705
000220 b8 36 95 3d 7c 80 c0 3c 51 ee 80 3b 55 1c 44 3d
       0.072858274 0.023498766 0.0039346595 0.047878582
000230 5d c8 b1 3c 8d 0c 53 3d 48 23 4f 3d 69 b1 84 3c
       0.021701986 0.05152564 0.050570756 0.016197877
000240 ae 30 2e 3d 59 4f 69 3d 8d e5 93 bd 5f 5e 3d bc
       0.042526893 0.056960437 -0.07221518 -0.011558144
000250 53 13 37 bb cd b3 72 bd e3 57 b9 bc 95 eb c7 bc
       -0.0027935102 -0.059253503 -0.022624915 -0.024404326
000260 6e 3a 3a bd 68 00 ad bc 76 da 03 bd e1 99 4d 3c
       -0.04546588 -0.021118358 -0.032190762 0.012548895
000270 aa f8 fd bc ce 7e 13 bd 91 75 87 bc 96 ec 0c bd
       -0.031002361 -0.036009602 -0.016535552 -0.034405313
000280 5d 41 fb bc e6 38 5c 3a 7e 9e 84 3c 2d 2a f4 3c
       -0.030670816 0.00084008125 0.016188856 0.029805267
000290 1a 89 77 3c bd fe 17 3d 35 f7 88 3d bb c7 c1 3c
       0.015108371 0.03710817 0.06687776 0.02365481
0002a0 cf f8 9a bc 8f f0 81 bc db 46 0e bd 4d e1 55 3d
       -0.01891747 -0.015861778 -0.03473554 0.052216817
0002b0 b5 c0 81 3d ef 1d b7 3c 27 f2 82 3d ad ce 86 3d
       0.06335584 0.02235314 0.06393843 0.06582389
0002c0 77 f2 60 3d ba 43 65 3a 0c a6 43 bc 3f c4 67 3d
       0.054918732 0.0008745749 -0.011941444 0.05658364
0002d0 33 34 55 3d 07 8e f5 bc ab aa 25 bd 92 5f 7a 3d
       0.052051734 -0.02997495 -0.040445965 0.0611263
0002e0 e3 ab 5d 3c f6 6a 22 3c 65 82 4d 3d 31 d8 4a 3d
       0.0135297505 0.009913197 0.050173182 0.049522582
0002f0 c1 5d bc 3d 06 5d 2e bd 01 92 61 bd cf bf 67 bd
       0.0919757 -0.042569183 -0.05507088 -0.056579407
000300 9b a5 00 bd 57 11 5d bd d9 14 55 bd ae 66 4a bd
       -0.031407934 -0.053971615 -0.052021835 -0.04941433
000310 fb bd 19 bd 65 7e 08 bc 0e be 98 bc 93 48 bc 3c
       -0.037534695 -0.008330916 -0.018645313 0.022983825
000320 ee 9a 21 3b 98 20 24 bd e7 01 0d bc 33 ef b4 bc
       0.0024658996 -0.040070146 -0.008606411 -0.022086715
000330 de ff 58 bd e4 64 cc bc 74 2a 6f bd 53 e9 3c 3d
       -0.05297839 -0.024950452 -0.058390096 0.046120953
000340 32 d0 03 3b 55 c2 79 bc 72 1e 56 3d aa 17 81 3c
       0.0020113108 -0.015244086 0.05227513 0.015758354
000350 06 89 dd bb c0 67 b3 3d e6 47 1c 3c 70 48 00 bd
       -0.006760719 0.08760023 0.009538626 -0.03131908
000360 a7 1e 4e bd 4f d7 1d bd f4 cd 84 bd 1c 5d ab ba
       -0.0503222 -0.038535412 -0.06484595 -0.0013074013
000370 ea f4 76 bd 8b c0 5c bd c0 b9 2d bd a5 79 42 bd
       -0.060292162 -0.05389456 -0.042413473 -0.04747929
000380 1f 7a 23 bd b4 05 4e bd 11 dd 78 bd 6a d8 13 bd
       -0.039911386 -0.050298408 -0.0607577 -0.03609506
000390 a1 c5 1c bd 9b bb 02 bd c2 b6 5f bc 38 42 57 bd
       -0.03827441 -0.031917196 -0.013654413 -0.052553385
0003a0 9f 59 35 bd e7 ac 0e bd 29 01 a6 3c 7f 55 df bc
       -0.044274922 -0.03483286 0.020264225 -0.027262447
0003b0 a5 d4 99 bc eb be a1 3c 17 5d 83 bc b4 a1 cb bc
       -0.018778155 0.019744357 -0.0160356 -0.02485738
0003c0 22 60 fd ba 32 2c b7 bc d8 a7 c9 bc dc 4d 95 3d
       -0.0019331018 -0.022359941 -0.024616167 0.07290241
0003d0 76 c7 d6 bc 19 8d 6a 3d 3c 4d e5 3d 25 b8 81 3d
       -0.026218157 0.057263467 0.11196372 0.06333951
0003e0 f4 19 fa 3d ce bd 08 be 7d 16 c4 bd 38 42 27 be
       0.122119814 -0.13353655 -0.09574602 -0.16333854
0003f0 07 b9 2c bd 15 cf 08 bd ef 64 86 bc fa 61 e9 bd
       -0.042168643 -0.033400614 -0.01640555 -0.11395641
